Model: "model_conv1D"
_________________________________________________________________
Layer (type)                 Output Shape              Param #
=================================================================
Conv1D_1 (Conv1D)            (None, 1501, 64)          32064
_________________________________________________________________
dropout (Dropout)            (None, 1501, 64)          0
_________________________________________________________________
Conv1D_2 (Conv1D)            (None, 1402, 32)          204832
_________________________________________________________________
Conv1D_3 (Conv1D)            (None, 1393, 16)          5136
_________________________________________________________________
Conv1D_4 (Conv1D)            (None, 1392, 8)           264
_________________________________________________________________
MaxPooling1D (MaxPooling1D)  (None, 696, 8)            0
_________________________________________________________________
flatten (Flatten)            (None, 5568)              0
_________________________________________________________________
Dense_1 (Dense)              (None, 32)                178208
_________________________________________________________________
Dense_2 (Dense)              (None, 1)                 33
=================================================================
Total params: 420,537
Trainable params: 420,537
Non-trainable params: 0
_________________________________________________________________
Epoch 1/2































50/50 [==============================] - 69s 1s/step - loss: 921.1301 - mae: 23.0600 - val_loss: 622.0266 - val_mae: 20.5492
Epoch 2/2




















…
