Model: "model_conv1D"
_________________________________________________________________
Layer (type)                 Output Shape              Param #
=================================================================
Conv1D_1 (Conv1D)            (None, 501, 64)           32064
_________________________________________________________________
dropout (Dropout)            (None, 501, 64)           0
_________________________________________________________________
Conv1D_2 (Conv1D)            (None, 402, 32)           204832
_________________________________________________________________
Conv1D_3 (Conv1D)            (None, 393, 16)           5136
_________________________________________________________________
Conv1D_4 (Conv1D)            (None, 392, 8)            264
_________________________________________________________________
MaxPooling1D (MaxPooling1D)  (None, 196, 8)            0
_________________________________________________________________
flatten (Flatten)            (None, 1568)              0
_________________________________________________________________
Dense_1 (Dense)              (None, 32)                50208
_________________________________________________________________
Dense_2 (Dense)              (None, 1)                 33
=================================================================
Total params: 292,537
Trainable params: 292,537
Non-trainable params: 0
_________________________________________________________________
Epoch 1/10










50/50 [==============================] - 25s 457ms/step - loss: 1544.7251 - mae: 27.8210 - val_loss: 557.4879 - val_mae: 19.1010
Epoch 2/10









50/50 [==============================] - 22s 433ms/step - loss: 479.6808 - mae: 17.5919 - val_loss: 288.1519 - val_mae: 14.0122
Epoch 3/10










50/50 [==============================] - 21s 429ms/step - loss: 473.7975 - mae: 17.4839 - val_loss: 339.0067 - val_mae: 15.0087
Epoch 4/10










50/50 [==============================] - ETA: 0s - loss: 419.1723 - mae: 16.2372
Epoch 5/10









47/50 [===========================>..] - ETA: 1s - loss: 443.0107 - mae: 16.9326Model: "model_conv1D"
_________________________________________________________________
Layer (type)                 Output Shape              Param #
=================================================================
Conv1D_1 (Conv1D)            (None, 1501, 64)          32064
_________________________________________________________________
dropout_1 (Dropout)          (None, 1501, 64)          0
_________________________________________________________________
Conv1D_2 (Conv1D)            (None, 1402, 32)          204832
_________________________________________________________________
Conv1D_3 (Conv1D)            (None, 1393, 16)          5136
_________________________________________________________________
Conv1D_4 (Conv1D)            (None, 1392, 8)           264
_________________________________________________________________
MaxPooling1D (MaxPooling1D)  (None, 696, 8)            0
_________________________________________________________________
flatten_1 (Flatten)          (None, 5568)              0
_________________________________________________________________
Dense_1 (Dense)              (None, 32)                178208
_________________________________________________________________
Dense_2 (Dense)              (None, 1)                 33
=================================================================
Total params: 420,537
Trainable params: 420,537
Non-trainable params: 0
_________________________________________________________________
Epoch 1/100





























50/50 [==============================] - 65s 1s/step - loss: 833.4890 - mae: 22.1129 - val_loss: 515.1360 - val_mae: 18.9519
Epoch 2/100


















…
