… 0
0
0
0
0
0
0
0
0
0
0
0
0
0
0
0
0
0
0
0
0
0
0
0
0
0
0
0
0
0
(1980, 1000)
Model: "model_conv1D"
_________________________________________________________________
 Layer (type)                Output Shape              Param #
=================================================================
 Conv1D_1 (Conv1D)           (None, 501, 64)           32064
 dropout (Dropout)           (None, 501, 64)           0
 Conv1D_2 (Conv1D)           (None, 402, 32)           204832
 Conv1D_3 (Conv1D)           (None, 393, 16)           5136
 Conv1D_4 (Conv1D)           (None, 392, 8)            264
 MaxPooling1D (MaxPooling1D)  (None, 196, 8)           0
 flatten (Flatten)           (None, 1568)              0
 Dense_1 (Dense)             (None, 32)                50208
 Dense_2 (Dense)             (None, 1)                 33
=================================================================
Total params: 292,537
Trainable params: 292,537
Non-trainable params: 0
_________________________________________________________________
Model: "model_conv1D"
_________________________________________________________________
 Layer (type)                Output Shape              Param #
=================================================================
 Conv1D_1 (Conv1D)           (None, 501, 64)           32064
 dropout_1 (Dropout)         (None, 501, 64)           0
 Conv1D_2 (Conv1D)           (None, 402, 32)           204832
 Conv1D_3 (Conv1D)           (None, 393, 16)           5136
 Conv1D_4 (Conv1D)           (None, 392, 8)            264
 MaxPooling1D (MaxPooling1D)  (None, 196, 8)           0
 flatten_1 (Flatten)         (None, 1568)              0
 Dense_1 (Dense)             (None, 32)                50208
 Dense_2 (Dense)             (None, 1)                 33
=================================================================
Total params: 292,537
Trainable params: 292,537
Non-trainable params: 0
_________________________________________________________________
Epoch 1/50



50/50 [==============================] - 10s 175ms/step - loss: 998.6964 - mae: 23.5959 - val_loss: 334.9848 - val_mae: 14.7672
Epoch 2/50



50/50 [==============================] - 9s 176ms/step - loss: 420.5435 - mae: 16.4948 - val_loss: 302.3983 - val_mae: 14.2167
…
50/50 [==============================] - 8s 170ms/step - loss: 249.4846 - mae: 12.5492 - val_loss: 351.7979 - val_mae: 15.1737
Epoch 49/50



50/50 [==============================] - 8s 169ms/step - loss: 249.6263 - mae: 12.7482 - val_loss: 293.0666 - val_mae: 13.8525
Epoch 50/50




50/50 [==============================] - 8s 170ms/step - loss: 247.7057 - mae: 12.6459 - val_loss: 289.2888 - val_mae: 13.8289
Model: "model_conv1D"
_________________________________________________________________
 Layer (type)                Output Shape              Param #
=================================================================
 Conv1D_1 (Conv1D)           (None, 501, 64)           32064
 dropout_2 (Dropout)         (None, 501, 64)           0
 Conv1D_2 (Conv1D)           (None, 402, 32)           204832
 Conv1D_3 (Conv1D)           (None, 393, 16)           5136
 Conv1D_4 (Conv1D)           (None, 392, 8)            264
 MaxPooling1D (MaxPooling1D)  (None, 196, 8)           0
 flatten_2 (Flatten)         (None, 1568)              0
 Dense_1 (Dense)             (None, 32)                50208
 Dense_2 (Dense)             (None, 1)                 33
=================================================================
Total params: 292,537
Trainable params: 292,537
Non-trainable params: 0
