Model: "model_conv1D"
_________________________________________________________________
 Layer (type)                Output Shape              Param #
=================================================================
 Conv1D_1 (Conv1D)           (None, 1969, 64)          2112
 dropout (Dropout)           (None, 1969, 64)          0
 Conv1D_2 (Conv1D)           (None, 1954, 64)          65600
 Conv1D_3 (Conv1D)           (None, 1939, 32)          32800
 Conv1D_4 (Conv1D)           (None, 1932, 16)          4112
 Conv1D_5 (Conv1D)           (None, 1929, 8)           520
 Conv1D_6 (Conv1D)           (None, 1928, 4)           68
 MaxPooling1D (MaxPooling1D)  (None, 964, 4)           0
 flatten (Flatten)           (None, 3856)              0
 Dense_1 (Dense)             (None, 32)                123424
 Dense_2 (Dense)             (None, 1)                 33
=================================================================
Total params: 228,669
Trainable params: 228,669
Non-trainable params: 0
_________________________________________________________________
Epoch 1/200







394/394 [==============================] - 21s 42ms/step - loss: 547.4877 - mae: 18.5120 - val_loss: 793.7337 - val_mae: 23.7008
Epoch 2/200







394/394 [==============================] - 16s 41ms/step - loss: 383.1075 - mae: 15.8423 - val_loss: 330.6467 - val_mae: 14.9456
…
