Model: "model_conv1D"
_________________________________________________________________
 Layer (type)                Output Shape              Param #
=================================================================
 Conv1D_1 (Conv1D)           (None, 501, 64)           32064
 dropout (Dropout)           (None, 501, 64)           0
 Conv1D_2 (Conv1D)           (None, 402, 32)           204832
 Conv1D_3 (Conv1D)           (None, 393, 16)           5136
 Conv1D_4 (Conv1D)           (None, 392, 8)            264
 MaxPooling1D (MaxPooling1D)  (None, 196, 8)           0
 flatten (Flatten)           (None, 1568)              0
 Dense_1 (Dense)             (None, 32)                50208
 Dense_2 (Dense)             (None, 1)                 33
=================================================================
Total params: 292,537
Trainable params: 292,537
Non-trainable params: 0
_________________________________________________________________
Epoch 1/50




50/50 [==============================] - 10s 179ms/step - loss: 1057.5693 - mae: 24.4485 - val_loss: 638.9556 - val_mae: 21.1492
Epoch 2/50




48/50 [===========================>..] - ETA: 0s - loss: 395.4057 - mae: 16.1686Epoch 1/50
…
