Model: "model_conv1D"
_________________________________________________________________
 Layer (type)                Output Shape              Param #
=================================================================
 Conv1D_1 (Conv1D)           (None, 1501, 64)          32064
 dropout (Dropout)           (None, 1501, 64)          0
 Conv1D_2 (Conv1D)           (None, 1402, 32)          204832
 Conv1D_3 (Conv1D)           (None, 1393, 16)          5136
 Conv1D_4 (Conv1D)           (None, 1392, 8)           264
 MaxPooling1D (MaxPooling1D)  (None, 696, 8)           0
 flatten (Flatten)           (None, 5568)              0
 Dense_1 (Dense)             (None, 32)                178208
 Dense_2 (Dense)             (None, 1)                 33
=================================================================
Total params: 420,537
Trainable params: 420,537
Non-trainable params: 0
_________________________________________________________________
Epoch 1/2
50/50 [==============================] - 7s 61ms/step - loss: 957.8323 - mae: 23.0675 - val_loss: 318.5829 - val_mae: 14.9299
Epoch 2/2

50/50 [==============================] - 3s 50ms/step - loss: 484.0633 - mae: 17.7230 - val_loss: 629.8411 - val_mae: 21.0533
…
