Model: "model_conv1D"
_________________________________________________________________
 Layer (type)                Output Shape              Param #
=================================================================
 Conv1D_1 (Conv1D)           (None, 1969, 64)          2112
 dropout (Dropout)           (None, 1969, 64)          0
 Conv1D_2 (Conv1D)           (None, 1954, 64)          65600
 Conv1D_3 (Conv1D)           (None, 1939, 32)          32800
 Conv1D_4 (Conv1D)           (None, 1932, 16)          4112
 Conv1D_5 (Conv1D)           (None, 1929, 8)           520
 Conv1D_6 (Conv1D)           (None, 1928, 4)           68
 MaxPooling1D (MaxPooling1D)  (None, 964, 4)           0
 flatten (Flatten)           (None, 3856)              0
 Dense_1 (Dense)             (None, 32)                123424
 Dense_2 (Dense)             (None, 1)                 33
=================================================================
Total params: 228,669
Trainable params: 228,669
Non-trainable params: 0
_________________________________________________________________
Epoch 1/10






307/307 [==============================] - 19s 44ms/step - loss: 480.6751 - mae: 17.1078 - val_loss: 346.3148 - val_mae: 14.6853
Epoch 2/10






307/307 [==============================] - 13s 43ms/step - loss: 333.1274 - mae: 14.7160 - val_loss: 245.4945 - val_mae: 12.4953
…
